…
        "frame_repeat": 12,
        "learning_rate": 0.00025,
        "discount_factor": 0.99,
        "train_epochs": 80,
        "learning_steps_per_epoch": 2000,
        "replay_memory_size": 10000,
        "batch_size": 64,
        "test_episodes_per_epoch": 100,
        "net_descritpion": "==========================================================================================\nLayer (type:depth-idx)                   Output Shape              Param #\n==========================================================================================\n\u251c\u2500Sequential: 1-1                        [-1, 32, 29, 39]          --\n|    \u2514\u2500Conv2d: 2-1                       [-1, 32, 29, 39]          2,048\n|    \u2514\u2500BatchNorm2d: 2-2                  [-1, 32, 29, 39]          64\n|    \u2514\u2500ReLU: 2-3                         [-1, 32, 29, 39]          --\n\u251c\u2500Sequential: 1-2                        [-1, 64, 26, 36]          --\n|    \u2514\u2500Conv2d: 2-4                       [-1, 64, 26, 36]          32,768\n|    \u2514\u2500BatchNorm2d: 2-5                  [-1, 64, 26, 36]          128\n|    \u2514\u2500ReLU: 2-6                         [-1, 64, 26, 36]          --\n\u251c\u2500Sequential: 1-3                        [-1, 32, 24, 34]          --\n|    \u2514\u2500Conv2d: 2-7                       [-1, 32, 24, 34]          18,432\n|    \u2514\u2500BatchNorm2d: 2-8                  [-1, 32, 24, 34]          64\n|    \u2514\u2500ReLU: 2-9                         [-1, 32, 24, 34]          --\n\u251c\u2500Sequential: 1-4                        [-1, 1]                   --\n|    \u2514\u2500Linear: 2-10                      [-1, 512]                 6,685,184\n|    \u2514\u2500ELU: 2-11                         [-1, 512]                 --\n|    \u2514\u2500Linear: 2-12                      [-1, 1]                   513\n\u251c\u2500Sequential: 1-5                        [-1, 8]                   --\n|    \u2514\u2500Linear: 2-13                      [-1, 512]                 6,685,184\n|    \u2514\u2500ELU: 2-14                         [-1, 512]                 --\n|    \u2514\u2500Linear: 2-15                      [-1, 8]                   4,104\n==========================================================================================\nTotal params: 13,428,489\nTrainable params: 13,428,489\nNon-trainable params: 0\nTotal mult-adds (M): 74.83\n==========================================================================================\nInput size (MB): 0.07\nForward/backward pass size (MB): 1.87\nParams size (MB): 51.23\nEstimated Total Size (MB): 53.17\n==========================================================================================",
…
