…
        "frame_repeat": 12,
        "learning_rate": 0.00025,
        "discount_factor": 0.99,
        "train_epochs": 80,
        "learning_steps_per_epoch": 2000,
        "replay_memory_size": 50000,
        "batch_size": 128,
        "test_episodes_per_epoch": 100,
        "net_descritpion": "==========================================================================================\nLayer (type:depth-idx)                   Output Shape              Param #\n==========================================================================================\n\u251c\u2500Sequential: 1-1                        [-1, 32, 29, 39]          --\n|    \u2514\u2500Conv2d: 2-1                       [-1, 32, 29, 39]          2,048\n|    \u2514\u2500BatchNorm2d: 2-2                  [-1, 32, 29, 39]          64\n|    \u2514\u2500ReLU: 2-3                         [-1, 32, 29, 39]          --\n\u251c\u2500Sequential: 1-2                        [-1, 64, 26, 36]          --\n|    \u2514\u2500Conv2d: 2-4                       [-1, 64, 26, 36]          32,768\n|    \u2514\u2500BatchNorm2d: 2-5                  [-1, 64, 26, 36]          128\n|    \u2514\u2500ReLU: 2-6                         [-1, 64, 26, 36]          --\n\u251c\u2500Sequential: 1-3                        [-1, 1]                   --\n|    \u2514\u2500Linear: 2-7                       [-1, 512]                 15,335,936\n|    \u2514\u2500Linear: 2-8                       [-1, 1]                   513\n\u251c\u2500Sequential: 1-4                        [-1, 8]                   --\n|    \u2514\u2500Linear: 2-9                       [-1, 512]                 15,335,936\n|    \u2514\u2500Linear: 2-10                      [-1, 8]                   4,104\n==========================================================================================\nTotal params: 30,711,497\nTrainable params: 30,711,497\nNon-trainable params: 0\nTotal mult-adds (M): 94.37\n==========================================================================================\nInput size (MB): 0.07\nForward/backward pass size (MB): 1.47\nParams size (MB): 117.16\nEstimated Total Size (MB): 118.70\n==========================================================================================",
…
